lab3/code/log/classify-08-19-31-48-RNN-0.001/model_0.1632149115819659_0.10482307303342342.pth (torch, 124831 bytes, 4 tensors)

weight f4 [128, 228]
-0.08963236 0.067167774 0.041017257 0.03709531 0.110279396 0.052181818 0.06668626 -0.047642577
0.030195488 -0.11930682 -0.009070138 -0.014410483 -0.03754571 -0.061415523 -0.033827197 -0.056812614
0.09254651 -0.0010407658 -0.099147566 -0.0025261901 -0.10311919 0.044446398 -0.047926873 0.09927567
-0.047988065 -0.03374618 -0.100749865 -0.016595116 -0.11332499 -0.07791532 -0.082227685 0.044968467
-0.0073754317 0.044698548 -0.11418141 0.12334835 0.1123312 0.09264521 0.070350125 -0.009605395
-0.1190577 0.09325808 0.051359095 0.10487747 -0.08692236 -0.07221053 -0.12308498 -0.07694264
0.0027430253 0.09716695 -0.014472604 0.114993975 0.06516455 0.04183871 0.0616299 0.0651237
-0.0725658 0.026268993 -0.083982095 -0.1269523 0.064033486 0.12753266 -0.06966421 -0.011096205
-0.105094895 0.1037865 -0.07755369 0.089458674 0.052637 0.05078792 -0.033146016 0.11710284
-0.030232258 0.06989593 -0.12135757 -0.06347537 -0.0068353014 0.075854495 0.01397545 0.058297604
-0.05548647 -0.04469338 0.03605956 0.12587018 0.08265298 0.016955415 -0.0508787 0.071484625
-0.02988541 -0.10685479 0.056530777 0.062122144 -0.043365642 0.011565547 0.0941654 0.006063773
0.040011033 0.11746 -0.08671413 0.017419 -0.07447302 -0.05049053 0.046382576 0.07641501
0.016612124 -0.038799442 0.124248326 -0.12267782 -0.023337778 -0.038595513 -0.056065876 0.023834514
0.08528959 -0.057988036 -0.12672383 0.087359056 -0.06749584 -0.0070997565 -0.049985792 0.05754906
0.11719841 -0.033719048 -0.0758196 -0.104318954 5.55591e-06 -0.024119798 0.11552804 0.1165992
0.0103011215 0.015891248 0.118715554 -0.009795781 -0.088684656 0.12142147 0.09557881 -0.10406044
-0.08393005 -0.033543628 0.01597324 0.026867095 -0.07099705 -0.07132601 -0.054190565 -0.09763245
-0.07653722 0.080026925 0.10695769 -0.10022767 -0.0056664865 -0.017211357 -0.12615629 -0.07728956
0.116222486 0.1052608 0.105457015 0.001475659 -0.100259736 0.025924617 -0.1259649 0.10269174
0.071606115 -0.109981865 -0.120774396 0.041008882 -0.11136908 0.031409167 -0.11001785 0.03783604
-0.049149577 0.11047244 -0.017380109 0.05688071 0.011905742 -0.0048347404 -0.09358882 -0.021116821
-0.003784333 0.09419856 -0.120079264 -0.10292017 0.121824265 -0.09881707 0.09530755 -0.11878399
-0.014797678 0.07174506 -0.052854624 -0.011066367 0.08605704 0.017992884 -0.00033886408 0.023846662
-0.016405813 -0.018854003 0.08162314 -0.062060103 0.1196771 -0.08935551 0.017348027 -0.049631935
0.08808081 0.082882956 -0.056488205 0.086999156 -0.07574825 0.10008235 0.06157937 0.091342285
-0.018285505 -0.0018004243 0.08450767 -0.09851392 0.104291715 0.006113033 0.09729898 -0.003520404
0.111523 -0.08755326 -0.0825491 0.047416873 0.11723423 -0.08116171 0.06855569 -0.02848597
-0.06904535 0.0029702142 0.036003657 0.06570337 -0.097818635 -0.03798272 -0.06946433 -0.046609163
0.082957484 7.940773e-05 -0.012903113 0.089837775 0.05915569 -0.05170845 -0.059603475 0.028552145
0.033538226 0.0962269 0.080946185 0.08916121 -0.08414689 0.09726634 0.102004014 -0.060809325
0.10741434 -0.075241245 0.04358975 -0.121753044 -0.051372033 -0.11067732 0.12628968 0.04938673
00000000: 2c91 b7bd 428f 893d b601 283d 40f1 173d
00000010: 2ada e13d 9abc 553d ce92 883d dd24 43bd
00000020: 875c f73c 2257 f4bd eb9a 14bc f219 6cbc
00000030: 88c9 19bd d88e 7bbd 638e 0abd 58b4 68bd
00000040: 0689 bd3d 4e6a 88ba e10d cbbd 708e 25bb
00000050: 2730 d3bd 6d0d 363d f84e 44bd 0b51 cb3d
00000060: 228f 44bd 6f39 0abd f255 cebd 7bf2 87bc
00000070: ef16 e8bd 1192 9fbd fd66 a8bd db30 383d
00000080: 9bad f1bb d315 373d f1d7 e9bd 0f9e fc3d
00000090: e60d e63d c6bc bd3d ba13 903d f25f 1dbc
000000a0: 86d4 f3bd 18fe be3d ea5d 523d 00ca d63d
000000b0: 5a04 b2bd 1de3 93bd fa13 fcbd 1a94 9dbd
000000c0: 54c4 333b 77ff c63d 801e 6dbc f681 eb3d
000000d0: fe74 853d 115f 2b3d a26f 7c3d 935f 853d
000000e0: 619d 94bd 1232 d73c cefe abbd c9ff 01be
000000f0: fd23 833d ec97 023e 1cac 8ebd dbcc 35bc
00000100: fe3b d7bd 048e d43d 78d4 9ebd 1c36 b73d
00000110: e599 573d fe06 503d 1ec4 07bd 9dd3 ef3d
00000120: a4a9 f7bc 9925 8f3d 518a f8bd 60ff 81bd
00000130: aafa dfbb 9a59 9b3d 49f9 643c 78c9 6e3d
00000140: c845 63bd 6810 37bd 30b3 133d 1de4 003e
00000150: f745 a93d 15e6 8a3c 2f66 50bd 8866 923d
00000160: 3fd2 f4bc afd6 dabd d18c 673d ca73 7e3d
00000170: 2ca0 31bd 6c7d 3d3c cad9 c03d 9db2 c63b
00000180: 9ce2 233d de8e f03d 2e97 b1bd 4ab2 8e3c
00000190: 5085 98bd 28cf 4ebd a8fb 3d3d 797f 9c3d
000001a0: 2616 883c 2aec 1ebd e875 fe3d 823e fbbd
000001b0: de2e bfbc 5416 1ebd 55a5 65bd 9940 c33c
000001c0: 4fac ae3d dd84 6dbd e4c3 01be 4ee9 b23d
000001d0: 423b 8abd 13a5 e8bb e7bd 4cbd 90b8 6b3d
000001e0: b805 f03d fc1c 0abd 4e47 9bbd 2da5 d5bd
000001f0: e76c ba36 e296 c5bc f799 ec3d 90cb ee3d
00000200: 09c6 283c 5d2e 823c 2421 f33d 7c7e 20bc
00000210: 4da0 b5bd d2ab f83d d3be c33d a41d d5bd
00000220: 85e3 abbd 0b65 09bd 50da 823c 6218 dc3c
00000230: e766 91bd 5f13 92bd edf6 5dbd 86f3 c7bd
00000240: 8cbf 9cbd 28e5 a33d a20c db3d 2a44 cdbd
00000250: efad b9bb d5fe 8cbc 1d2f 01be fd49 9ebd
00000260: 0e06 ee3d f992 d73d d9f9 d73d e66a c13a
00000270: fa54 cdbd dd5f d43c f1fc 00be 0c50 d23d
00000280: 3aa6 923d 2c3e e1bd 9158 f7bd eef8 273d
00000290: 7915 e4bd e6a6 003d 0a51 e1bd f7f9 1a3d
000002a0: 1151 49bd 603f e23d bb60 8ebc bffb 683d
000002b0: 4d10 433c be6c 9ebb 7fab bfbd 2ffd acbc
000002c0: 9202 78bb 2deb c03d 1eec f5bd cfc7 d2bd
000002d0: 007f f93d 9b60 cabd 9b30 c33d 0545 f3bd
000002e0: f671 72bc 13ef 923d 177e 58bd b54f 35bc
000002f0: ac3e b03d d065 933c 91a9 b1b9 135a c33c
00000300: 7c65 86bc b673 9abc 082a a73d bc32 7ebd
00000310: 4419 f53d 0600 b7bd 731d 8e3c db4a 4bbd
00000320: b663 b43d 8abe a93d 2d60 67bd 9d2c b23d
00000330: e621 9bbd faf7 cc3d a63a 7c3d aa11 bb3d
00000340: 7ccb 95bc 37fc ebba 5b12 ad3d abc1 c9bd
00000350: e596 d53d d64f c83b b044 c73d 94b6 66bb
00000360: 2c66 e43d 204f b3bd 810f a9bd 3238 423d
00000370: 8018 f03d 1c38 a6bd ed66 8c3d 695b e9bc
00000380: a667 8dbd eda7 423b 9278 133d 7d8f 863d
00000390: 2355 c8bd c593 1bbd 5143 8ebd 40e9 3ebd
000003a0: 9de5 a93d b387 a638 9467 53bc defc b73d
000003b0: 3d4d 723d 3dcc 53bd c622 74bd 30e6 e93c
000003c0: 615f 093d 9c12 c53d 1dc7 a53d 279a b63d
000003d0: 3455 acbd 9333 c73d 7be7 d03d 3313 79bd
000003e0: 0dfc db3d 1518 9abd 2a8b 323d a959 f9bd
000003f0: 7b6b 52bd caaa e2bd 1552 013e bd49 4a3d

bias f4 [128]
0.0 0.0 0.0 0.0 0.0 0.0 0.0 0.0
0.0 0.0 0.0 0.0 0.0 0.0 0.0 0.0
0.0 0.0 0.0 0.0 0.0 0.0 0.0 0.0
0.0 0.0 0.0 0.0 0.0 0.0 0.0 0.0
0.0 0.0 0.0 0.0 0.0 0.0 0.0 0.0
0.0 0.0 0.0 0.0 0.0 0.0 0.0 0.0
0.0 0.0 0.0 0.0 0.0 0.0 0.0 0.0
0.0 0.0 0.0 0.0 0.0 0.0 0.0 0.0
0.0 0.0 0.0 0.0 0.0 0.0 0.0 0.0
0.0 0.0 0.0 0.0 0.0 0.0 0.0 0.0
0.0 0.0 0.0 0.0 0.0 0.0 0.0 0.0
0.0 0.0 0.0 0.0 0.0 0.0 0.0 0.0
0.0 0.0 0.0 0.0 0.0 0.0 0.0 0.0
0.0 0.0 0.0 0.0 0.0 0.0 0.0 0.0
0.0 0.0 0.0 0.0 0.0 0.0 0.0 0.0
0.0 0.0 0.0 0.0 0.0 0.0 0.0 0.0
00000000: 0000 0000 0000 0000 0000 0000 0000 0000
00000010: 0000 0000 0000 0000 0000 0000 0000 0000
00000020: 0000 0000 0000 0000 0000 0000 0000 0000
00000030: 0000 0000 0000 0000 0000 0000 0000 0000
00000040: 0000 0000 0000 0000 0000 0000 0000 0000
00000050: 0000 0000 0000 0000 0000 0000 0000 0000
00000060: 0000 0000 0000 0000 0000 0000 0000 0000
00000070: 0000 0000 0000 0000 0000 0000 0000 0000
00000080: 0000 0000 0000 0000 0000 0000 0000 0000
00000090: 0000 0000 0000 0000 0000 0000 0000 0000
000000a0: 0000 0000 0000 0000 0000 0000 0000 0000
000000b0: 0000 0000 0000 0000 0000 0000 0000 0000
000000c0: 0000 0000 0000 0000 0000 0000 0000 0000
000000d0: 0000 0000 0000 0000 0000 0000 0000 0000
000000e0: 0000 0000 0000 0000 0000 0000 0000 0000
000000f0: 0000 0000 0000 0000 0000 0000 0000 0000
00000100: 0000 0000 0000 0000 0000 0000 0000 0000
00000110: 0000 0000 0000 0000 0000 0000 0000 0000
00000120: 0000 0000 0000 0000 0000 0000 0000 0000
00000130: 0000 0000 0000 0000 0000 0000 0000 0000
00000140: 0000 0000 0000 0000 0000 0000 0000 0000
00000150: 0000 0000 0000 0000 0000 0000 0000 0000
00000160: 0000 0000 0000 0000 0000 0000 0000 0000
00000170: 0000 0000 0000 0000 0000 0000 0000 0000
00000180: 0000 0000 0000 0000 0000 0000 0000 0000
00000190: 0000 0000 0000 0000 0000 0000 0000 0000
000001a0: 0000 0000 0000 0000 0000 0000 0000 0000
000001b0: 0000 0000 0000 0000 0000 0000 0000 0000
000001c0: 0000 0000 0000 0000 0000 0000 0000 0000
000001d0: 0000 0000 0000 0000 0000 0000 0000 0000
000001e0: 0000 0000 0000 0000 0000 0000 0000 0000
000001f0: 0000 0000 0000 0000 0000 0000 0000 0000

weight f4 [10, 128]
0.04873246 0.07065635 0.13060385 -0.08910852 -0.072536126 0.16383478 0.01343247 -0.19470204
0.024301354 -0.0488166 0.16491981 0.18988954 0.00658734 -0.1742195 -0.09657104 0.091383114
0.098020345 0.040383413 -0.020795742 0.100972466 0.17169295 0.042241067 -0.059323594 -0.12798153
0.100256495 0.022946158 0.13415802 -0.06909644 0.19655533 0.010143163 0.15798695 -0.17158689
-0.10426782 0.10109735 -0.1028112 0.13548942 -0.09566006 -0.07201073 0.04809523 0.030626105
0.07383232 -0.038675576 0.0969131 0.023403052 -0.11091797 0.12823969 -0.14841989 -0.17135863
0.15662605 0.12376782 -0.20817098 0.061915837 0.05231135 0.15747029 -0.003573844 -0.12247352
-0.009594944 -0.09558266 -0.053646885 -0.039213974 0.14888145 -0.20033312 -0.16910538 0.14023827
0.10423946 0.07478985 0.1753754 -0.10068333 0.07481483 -0.19133838 -0.20035595 0.10746518
-0.19722956 -0.08631726 0.17466219 0.05366908 0.0656909 -0.075893916 -0.14917232 -0.008749438
0.0005864726 -0.09544403 -0.19148965 0.15068115 -0.18180877 -0.089058004 0.19340439 0.16370404
0.14998892 -0.19442089 0.18001366 -0.13027187 -0.055287883 -0.0030613204 -0.078267 -0.15444943
0.198415 0.13616277 0.07876523 -0.12152678 0.006014787 -0.16798446 -0.027182462 -0.056663238
-0.1990877 0.09636921 0.007962843 -0.048598208 -0.048148025 0.07806668 -0.0035757332 -0.120184705
-0.0009690693 0.18607354 -0.07682654 0.025071096 0.18857755 -0.18816368 0.09605156 0.017087298
-0.023886094 -0.08629706 0.040952414 -0.1280665 -0.031088965 0.010955608 -0.09822892 0.19283369
-0.19145454 0.067653246 0.17437616 -0.10509498 -0.09005196 -0.02646104 -0.16994385 -0.054630645
-0.13193208 0.17683996 0.14358811 0.09216621 -0.1579752 -0.043135293 -0.17856067 -0.18196313
-0.0870226 -0.099127546 -0.08526082 0.15268785 0.024468193 -0.0017423661 -0.0552196 0.07214896
0.16636744 -0.17895131 -0.13247167 0.15531166 -0.16629831 0.18795937 0.17121235 -0.068480834
-0.15637654 -0.12523562 0.027262526 0.14879146 -0.09237299 -0.11528455 -0.061510026 0.0680911
-0.14282843 0.19957568 -0.0066990964 0.13655254 0.005307535 -0.20050506 -0.021713605 0.05434019
0.14374244 0.18465742 0.117235586 0.05005427 -0.09672403 0.14592326 -0.084068045 0.024454646
-0.18073198 -0.16444743 -0.08942417 -0.10051617 0.007754717 -0.046435837 -0.063805684 0.17993265
-0.04383193 -0.07343137 0.14040782 -0.1823726 -0.03244923 0.080412894 -0.07624972 0.07449845
-0.19017574 -0.12999797 -0.17657384 -0.04072987 -0.06943171 -0.046769913 0.20593293 -0.11807545
-0.004536177 -0.008421253 -0.041434836 0.056204133 -0.026997054 -0.08626735 0.18744437 0.18689086
0.031924974 0.091600865 -0.14859276 -0.05147678 -0.19999382 0.15935953 -0.03912501 0.10398042
-0.07590394 -0.15274394 -0.20669712 0.11984205 -0.0055060666 -0.07727922 0.107094884 0.18102282
-0.20139682 -0.124865025 0.0907606 0.08355736 0.16309802 0.15583152 -0.14445919 0.19595976
0.015550547 0.03937348 0.018032704 0.03261826 0.17210141 -0.055029545 0.10593427 0.061029095
0.19102664 -0.049221445 -0.16437815 -0.10011382 -0.12562984 0.180603 0.106902175 -0.18770964
00000000: b09b 473d 47b4 903d 04bd 053e 877e b6bd
00000010: d28d 94bd 4ec4 273e dd13 5c3c f95f 47be
00000020: a213 c73c eaf3 47bd bde0 283e 6772 423e
00000030: 9dda d73b 9966 32be 0ac7 c5bd 1227 bb3d
00000040: e4be c83d 1469 253d d55b aabc a7ca ce3d
00000050: 47d0 2f3e f804 2d3d 4cfd 72bd 970d 03be
00000060: 4753 cd3d 95f9 bb3c b860 093e 6f82 8dbd
00000070: cd45 493e 822f 263c 55c7 213e 79b4 2fbe
00000080: 5e8a d5bd 210c cf3d ae8e d2bd bdbd 0a3e
00000090: 6ce9 c3bd 5d7a 93bd 81ff 443d 99e3 fa3c
000000a0: 6635 973d 486a 1ebd 607a c63d c2b7 bf3c
000000b0: f628 e3bd 4451 033e 62fb 17be a378 2fbe
000000c0: 9462 203e fc79 fd3d c62a 55be 769b 7d3d
000000d0: 6d44 563d e43f 213e 2737 6abb 66d3 fabd
000000e0: 1d34 1dbc d7c0 c3bd d6bc 5bbd d59e 20bd
000000f0: 6174 183e 2024 4dbe f629 2dbe 9f9a 0f3e
00000100: 7f7b d53d 6c2b 993d 9c95 333e 1033 cebd
00000110: 8538 993d 35ee 43be 1c2a 4dbe b416 dc3d
00000120: 8cf6 49be 1bc7 b0bd a5da 323e 1cd4 5b3d
00000130: f388 863d 456e 9bbd a1c0 18be ce59 0fbc
00000140: 83bd 193a 2978 c3bd dd15 44be 294c 1a3e
00000150: 142c 3abe 0b64 b6bd cd0b 463e 08a2 273e
00000160: b296 193e 4516 47be 8055 383e fd65 05be
00000170: 8c75 62bd 6fa0 48bb 734a a0bd fe27 1ebe
00000180: 4d2d 4b3e 416e 0b3e aa4f a13d 08e3 f8bd
00000190: b117 c53b 1e04 2cbe c1ad debc b617 68bd
000001a0: a5dd 4bbe 385d c53d 9676 023c ea0e 47bd
000001b0: dd36 45bd 6ce1 9f3d d956 6abb 6623 f6bd
000001c0: 2409 7eba 108a 3e3e 3c57 9dbd e661 cd3c
000001d0: 791a 413e fbad 40be aeb6 c43d a9fa 8b3c
000001e0: c5ac c3bc 83bc b0bd b8bd 273d dd23 03be
000001f0: 49ae febc 277f 333c 3e2c c9bd 3276 453e
00000200: a90c 44be c98d 8a3d aa8f 323e 093c d7bd
00000210: 296d b8bd d3c4 d8bc c305 2ebe 62c4 5fbd
00000220: 3419 07be 8915 353e c308 133e a3c1 bc3d
00000230: 40c4 21be a2ae 30bd 9cd8 36be 8b54 3abe
00000240: e838 b2bd 6203 cbbd 3a9d aebd 345a 1c3e
00000250: 8571 c83c 1b60 e4ba f32d 62bd d5c2 933d
00000260: 3a5c 2a3e 033f 37be a7a6 07be 050a 1f3e
00000270: 1b4a 2abe 6c78 403e 4a52 2f3e ae3f 8cbd
00000280: 2c21 20be c43d 00be a955 df3c ca5c 183e
00000290: 0d2e bdbd 4e1a ecbd f0f1 7bbd 5973 8b3d
000002a0: 9e41 12be 915d 4c3e 1884 dbbb 6ed4 0b3e
000002b0: d5ea ad3b 3351 4dbe bbe0 b1bc d293 5e3d
000002c0: 3831 133e d616 3d3e 3619 f03d b505 4d3d
000002d0: 4017 c6bd e86c 153e de2b acbd 1c55 c83c
000002e0: ce11 39be e864 28be 0524 b7bd 6cdb cdbd
000002f0: 481b fe3b 8133 3ebd 8eac 82bd 4440 383e
00000300: 1c89 33bd 3063 96bd 11c7 0f3e e2bf 3abe
00000310: 7ce9 04bd 84af a43d d028 9cbd a592 983d
00000320: 6ebd 42be 301e 05be c6cf 34be 5dd4 26bd
00000330: 3632 8ebd cf91 3fbd 15e0 523e 8bd1 f1bd
00000340: 36a4 94bb 4cf9 09bc 93b7 29bd 4e36 663d
00000350: ed28 ddbc f0ac b0bd 6bf1 3f3e 5160 3f3e
00000360: c3c3 023d 3c99 bb3d b328 18be 51d9 52bd
00000370: 2ecb 4cbe 252f 233e 8c41 20bd b0f3 d43d
00000380: 8673 9bbd e868 1cbe 69a8 53be c06f f53d
00000390: 3c6c b4bb 9144 9ebd 9054 db3d 0c5e 393e
000003a0: f83a 4ebe 3cb9 ffbd b2e0 b93d 1f20 ab3d
000003b0: 2b03 273e 4c92 1f3e 1ced 13be ada9 483e
000003c0: b9c7 7e3c 1646 213d 52b9 933c b99a 053d
000003d0: 5a3b 303e a966 61bd 11f4 d83d a5f9 793d
000003e0: 7d9c 433e 6d9c 49bd bf52 28be 7908 cdbd
000003f0: 1ca5 00be feef 383e 87ef da3d f536 40be

bias f4 [10]
0.0 0.0 0.0 0.0 0.0 0.0 0.0 0.0
0.0 0.0
00000000: 0000 0000 0000 0000 0000 0000 0000 0000
00000010: 0000 0000 0000 0000 0000 0000 0000 0000
00000020: 0000 0000 0000 0000
