lab3/code/log/08-17-01-04-GRU-0.001/model_0.7086984228134459_0.pth (torch, 360591 bytes, 8 tensors)

weight f4 [128, 228]
000000 e2 6f 8e bd d6 ec ab be 9b 26 71 bf 00 3a 8e bd
       -0.06954934 -0.3357913 -0.9419953 -0.06944656
000010 af 4d 44 bf 5e bd ce be 78 66 a5 be c3 98 00 bf
       -0.76681036 -0.4037885 -0.3230474 -0.50233096
000020 cd ad 88 be 13 dc e8 3c dd 43 12 3f 5f 26 bf 3e
       -0.266951 0.028425252 0.571348 0.37333962
000030 d1 c8 0e 3d 8c c1 36 3f bd 7c dd 3e f5 d6 d4 bc
       0.034859482 0.7138908 0.4325923 -0.025981406
000040 ad 04 a4 3e f4 c6 b7 3e 39 87 21 3e 50 07 82 3e
       0.32034817 0.35893977 0.1577424 0.25396204
000050 87 89 a6 bc f3 fb 05 bf 2e c6 85 3e 49 2c 05 3e
       -0.02032925 -0.5233757 0.26127762 0.13005175
000060 47 d7 2e be c9 31 10 bf 0b ac 02 3d c9 2f 5f be
       -0.1707431 -0.56325966 0.031902354 -0.21795572
000070 47 d0 9b bd 05 f2 6f be 5f cd ce 3e 4d e0 82 be
       -0.07608085 -0.23432167 0.4039106 -0.25561753
000080 ee de b9 bd 80 cc 38 3f f9 01 20 3f 9b a4 a0 be
       -0.090757236 0.7218704 0.6250301 -0.31375584
000090 52 40 7c be 5f dc 39 3e b2 48 3d bf 64 07 0b be
       -0.24633911 0.18150471 -0.7393905 -0.13577038
0000a0 00 42 db 3e 44 f4 8c be 30 66 06 3f 22 78 26 bd
       0.42823792 -0.2753011 0.52499676 -0.04064191
0000b0 8c 3b 7e 3e dc 01 f2 be 49 fd 1b 3d 82 e8 de 3e
       0.24827403 -0.47267044 0.03808335 0.43536764
0000c0 bf e9 c6 be fc 22 9f be 01 76 09 bf 3e 6c 82 be
       -0.3885021 -0.31081378 -0.53695685 -0.25473207
0000d0 44 6a 96 be 4c 3a 05 3f cd 8b bc 3d 83 b2 0f bb
       -0.2937795 0.5204208 0.092063524 -0.002192647
0000e0 be d7 04 3e 04 5f 1d be 1a de 45 be f3 39 63 bd
       0.12972924 -0.15368277 -0.19323006 -0.055475187
0000f0 09 da 8b be a6 35 bb 3e 43 a7 00 3e f8 7f 6b bf
       -0.27314785 0.36564368 0.12563805 -0.9199214
000100 67 16 ce be 07 01 17 3e 73 e3 4b be 0f fb ff bd
       -0.40251467 0.14746486 -0.19910984 -0.124990575
000110 81 a6 91 3f 3f df a2 3e 68 c8 ab bd 88 5a 06 3f
       1.1378938 0.31810948 -0.08387834 0.5248189
000120 1d b3 bd be c8 b2 72 be a2 f5 29 3f fe ce f6 3c
       -0.37050715 -0.23701012 0.6639043 0.030127998
000130 bf 11 8a be ca 4b 5d 3f d1 e3 66 3e 78 0c c3 bd
       -0.26966664 0.8644377 0.22547843 -0.095238626
000140 7b 30 24 3e 6c 68 9b be af b7 b4 be 96 04 4f 3f
       0.16034119 -0.30353105 -0.3529639 0.8086637
000150 6d 32 18 3f c2 46 7b be 1e 9f a9 be 29 e8 15 3f
       0.59451944 -0.2453871 -0.3312921 0.58557373
000160 ac e9 de bd 4c 19 1b 3e 5e b4 ff be ae 93 da 3d
       -0.10884413 0.15146369 -0.49942297 0.10672699
000170 1d da 15 3e 39 96 87 3e 64 fc b7 3e 50 8a 3a be
       0.14633985 0.26481798 0.35934746 -0.18216825
000180 7f df 89 bd 49 37 8e be 0f f1 dd bd 20 e3 a4 be
       -0.067320816 -0.27776554 -0.10836994 -0.32204533
000190 cd 31 97 bf 27 02 b5 be 37 79 6d 3e 2e 93 70 be
       -1.1812073 -0.35353205 0.23190771 -0.23493645
0001a0 68 dd e1 3e 15 ac 1c 3f 6a 42 45 3e db 1c 9d be
       0.44114232 0.61200076 0.19263616 -0.30686077
0001b0 9a 4d 81 bd 48 52 35 3e 24 be d6 3f 32 f9 16 be
       -0.063136294 0.17707169 1.6776776 -0.14743498
0001c0 81 ad a7 be 81 19 3b be dc 4d 07 3f 5b 13 01 3f
       -0.3274956 -0.18271448 0.5285318 0.5042016
0001d0 52 b8 a3 3e 9c bd de 3e 8e 4e 0e 3f 86 43 94 bd
       0.31976563 0.43504035 0.55588615 -0.072394416
0001e0 f4 cd a1 bd 9c bd 2f 3d 28 84 82 3e fa c8 7f be
       -0.079006106 0.042905435 0.25491452 -0.2497901
0001f0 e5 c8 9a be df 65 f9 3e 10 bf 7b 3f 17 a3 3b bf
       -0.30231395 0.48710534 0.98338413 -0.7329573
000200 4a c8 32 3e bf 69 22 3f 7c fb c0 bd 74 09 22 bd
       0.17459217 0.63442606 -0.09422967 -0.039559796
000210 5f 21 03 3f 0d e6 4e 3d f9 b2 8d bf c2 3a 3a 3f
       0.51222795 0.050512362 -1.1070243 0.7274591
000220 b7 f0 2c be 90 2c d4 3d c6 0d d1 bd fa 74 6d 3e
       -0.168887 0.10360062 -0.10207705 0.23189154
000230 ab 3f 7c be 13 18 2b 3f d1 ed 14 3e 18 3a f7 bd
       -0.24633662 0.6683361 0.14543845 -0.120716274
000240 8b 9b 8d 3e d9 a6 ce 3c 86 95 9f 3e 62 a2 47 3e
       0.27657732 0.025226044 0.31168765 0.19495538
000250 1f 78 94 be b2 69 f7 3d a4 de 64 3f 09 dc 09 bf
       -0.28997895 0.12080707 0.8940222 -0.5385137
000260 89 66 71 3d 99 4f 86 bf a6 0e f3 3e a2 84 96 3f
       0.058935676 -1.0493041 0.47472113 1.1759226
000270 46 72 01 bf 4e 72 10 bd e5 14 e9 be cb 13 bd 3e
       -0.5056499 -0.03526526 -0.45523754 0.36929163
000280 cf 73 31 be ac 37 65 3e 7f 2f ed 3d 8a 91 06 be
       -0.17329334 0.22384518 0.11581325 -0.13141456
000290 4b b4 f1 3d 9d 0d bd 3d cf 1a 44 be e5 70 d1 3e
       0.11801966 0.09231112 -0.19150852 0.40906444
0002a0 85 02 1e bf b0 89 c6 3d 81 8e 88 3d 4a 9d e4 3e
       -0.61722594 0.096942306 0.066678055 0.44651252
0002b0 52 a9 3a 3d 03 c3 6b 3f 4a bc f3 3e f6 ff ec be
       0.045571633 0.9209444 0.4760459 -0.46289033
0002c0 71 16 45 be a1 00 c4 be d2 82 1f bf 46 59 32 3d
       -0.19246842 -0.3828173 -0.6230899 0.04354217
0002d0 fc 82 5e 3f 9a 82 40 bf c0 8c 10 be e8 29 35 be
       0.86918616 -0.7519928 -0.14116192 -0.17691767
0002e0 9b 4a 6f bd 58 2e 00 3f 44 24 35 3d 4b 75 23 be
       -0.05842076 0.50070715 0.04422404 -0.15962712
0002f0 b9 75 eb bd 99 53 e6 3e dd 8d ac 3c 8c 34 46 bb
       -0.11497063 0.44985655 0.02106374 -0.0030243723
000300 e5 ef 0c 3f 08 a7 1e be 07 95 00 3e 90 60 14 3f
       0.5505355 -0.15493405 0.1255685 0.5795984
000310 c1 27 56 3e 4b 13 0b bf fa 20 25 bf b2 0f 10 3f
       0.20913602 -0.54326314 -0.64503443 0.5627395
000320 44 59 19 be 30 f2 d5 3d ed 9a 92 be 81 de 1e bf
       -0.14975458 0.10446584 -0.28633824 -0.62058264
000330 58 d0 dd 3c 4d 4a 7e be fe ca 25 3e 4e 30 d8 be
       0.027076885 -0.24833031 0.16190717 -0.42224354
000340 e7 d9 98 be 7e 55 82 be 9c bb 55 bf da a5 91 3e
       -0.29853746 -0.2545585 -0.83489394 0.28446847
000350 be 89 9d bd 1c ce e0 be f1 12 43 be 45 ea 20 be
       -0.07692288 -0.4390725 -0.19050194 -0.15714367
000360 7a 59 01 3e 94 16 d0 be 4b 66 4a 3d 87 28 95 3d
       0.12631789 -0.40642226 0.04941396 0.072831206
000370 2f 41 d1 3e d1 ef e3 bd 81 93 64 be c4 57 ad bc
       0.40870044 -0.11129726 -0.22321893 -0.021160014
000380 aa b5 29 be e4 11 dc 3d a4 b2 30 3f 6f 57 19 be
       -0.16573206 0.107456 0.69022584 -0.1497476
000390 b9 fb 72 3e b3 f9 46 3f d0 b1 a8 bd 83 52 31 3e
       0.23728837 0.7772476 -0.0823704 0.17316632
0003a0 d6 af 0b 3f 4a af a6 bd 67 83 83 3c 8f 88 85 be
       0.5456518 -0.081389025 0.016053868 -0.26080748
0003b0 f4 9f 86 3f d1 2e 3b bf 36 03 2a bd 60 7d 1e 3f
       1.0517564 -0.7311831 -0.04150697 0.6191006
0003c0 6f b2 08 3f 8d c8 52 3e ed 5a 1b 3f ec 54 1c 3e
       0.5339727 0.20584317 0.60685617 0.1526677
0003d0 ce aa 99 3e 53 24 b4 bd 70 86 24 be 5d 02 00 be
       0.30013126 -0.08795991 -0.16066909 -0.12500902
0003e0 ac 13 4a 3f db 64 93 3d 69 34 51 bd 80 fa 2f 3e
       0.78936267 0.07196971 -0.051075373 0.17185402
0003f0 ed 28 91 3d 77 f3 74 3f ea ca df bc fc 5e 9e be
       0.07087884 0.95684 -0.027318437 -0.30931842

bias f4 [128]
000000 d8 10 b9 bd 30 44 41 ba 22 26 f1 3d 8c cb e4 3d
       -0.09036416 -0.00073725265 0.117748514 0.11171636
000010 6a d6 8e 3d d9 6c bf 3d e9 3a 72 3e 4e d2 2a 3e
       0.0697449 0.09346933 0.23655285 0.16681787
000020 b0 73 03 3e b3 d6 b7 3c 2f 9f 5d 3e 82 c4 d8 3c
       0.128371 0.022441244 0.21642755 0.02646089
000030 8f b8 48 bd 82 7f 0a 3d 85 e4 32 bc b6 e8 25 3c
       -0.049004134 0.033813007 -0.010918741 0.010126283
000040 9b 19 cf 3d de d8 3e 3e 88 1b 62 3e a2 ce 03 3e
       0.10112306 0.18637416 0.22080815 0.12871793
000050 8a cc d7 3b fb 72 f8 3d ae 05 27 3d 7e b2 03 3e
       0.0065856623 0.12131306 0.0407769 0.12861058
000060 6e 47 91 bd 7b 5e 84 3d 35 78 06 3e c1 1a 8c 3d
       -0.07093702 0.06463333 0.13131793 0.068410404
000070 9f 2f d9 3d 56 20 9c 3e f3 61 d1 3c 64 2f 61 3e
       0.10604786 0.3049342 0.025559401 0.21990734
000080 dc 59 33 3d cf 2e 06 3e 22 49 b9 3e db 06 05 3e
       0.04378687 0.13103794 0.36188608 0.12990896
000090 bc 1a 77 3d b3 f1 37 3c d5 06 ad 3d 0e 49 fd bc
       0.06032823 0.011227059 0.08448569 -0.030918624
0000a0 92 10 1d 3e 34 d2 53 3e d3 eb 54 3e ca 0a 64 bd
       0.15338352 0.20685655 0.20793085 -0.05567435
0000b0 e8 6d 19 3c 3e 58 3e 3e 72 e3 d8 3d b2 f7 98 3d
       0.009364583 0.18588349 0.10590257 0.07469119
0000c0 b5 a1 e2 3c 68 44 cc 3d 05 11 fa 3d f9 87 51 3c
       0.027664999 0.09973985 0.122102775 0.012788766
0000d0 f0 1a a2 3b 68 b2 d9 3d 5c 7d 04 3e 14 f9 0f 3e
       0.004947059 0.106297314 0.12938446 0.1405986
0000e0 fe b7 a9 3e 01 4e a2 3d 9c 1d 8e 3d 10 fd cf 3d
       0.33148187 0.07925034 0.06939241 0.1015569
0000f0 c3 fa f3 3d ed 09 49 bd fa 30 a6 3d 47 29 4f bd
       0.119130634 -0.04908173 0.0811481 -0.050576475
000100 68 be ea 3d 53 6a 20 be de 73 86 3e 1e f3 64 bb
       0.11462098 -0.1566556 0.26260275 -0.0034934948
000110 e2 45 d7 3e ee 66 cd 3d ad ce 55 3a af 9e c3 3d
       0.42045504 0.10029398 0.0008156102 0.09551751
000120 40 f3 aa 3d f9 e9 ab 3d 6e f2 93 3e 4d 20 ab bd
       0.083471775 0.08394236 0.28895897 -0.0835577
000130 05 e0 24 3c 3c 4a 6c bd 5a d4 74 3d 6f 64 02 3e
       0.010063176 -0.057687983 0.059772827 0.12733625
000140 6e 7f 38 3d 5e 5f db 3d 4c 60 4a 3e 54 09 a4 ba
       0.0450434 0.10711549 0.19763297 -0.0012514987
000150 6e 60 35 3d 69 1e 1d 3e 8c 45 bf 3d de 54 0e 3e
       0.044281416 0.15343632 0.09339437 0.13899562
000160 a1 6e 09 3e 41 f1 e3 3d ba 34 8f bd 14 92 9f bd
       0.13421108 0.1113 -0.06992479 -0.07791534
000170 32 2a fb 3d 70 68 3c 3e ae ba 44 3e 5a 17 32 3e
       0.122639075 0.18399215 0.19211838 0.1739172
000180 c4 6d c1 3d 13 bb ee bd c1 46 79 3e 5f d8 2d 3c
       0.09444764 -0.11656775 0.24343397 0.010610669
000190 d1 f5 cc 3d a1 48 b7 bd 81 c1 bc bd d8 ae c2 3c
       0.10007823 -0.089494 -0.092165954 0.023765013
0001a0 c0 e3 44 3e 18 d2 34 3e 48 51 35 3d ef c6 63 3d
       0.19227505 0.1765827 0.04426697 0.05560964
0001b0 f4 ac a0 3d 85 be af 3d ba 79 08 3e cf 67 29 bd
       0.07845488 0.085812606 0.13327685 -0.041358765
0001c0 82 76 de ba f9 74 70 3e fa 11 03 3e 85 80 c3 bc
       -0.0016972574 0.23482122 0.12799826 -0.023864994
0001d0 f3 45 01 3e 28 2a 87 3d 47 be b3 bd 5d e9 60 be
       0.1262434 0.065998375 -0.08776527 -0.21964021
0001e0 f5 30 04 3e 12 c2 b8 3d 5a 88 f1 3d 61 1e db 3e
       0.129093 0.09021391 0.11793585 0.42796615
0001f0 48 b5 66 3e 00 7e c1 3d b8 09 5d 3e 56 13 3d ba
       0.22530091 0.09447861 0.21585739 -0.0007212659

weight f4 [128, 228]
000000 2c 23 5b be 0a 84 80 be b4 6b 1c be 51 e4 1b be
       -0.21400136 -0.25100738 -0.1527546 -0.15223815
000010 15 f8 28 bf f6 79 be be db a5 5d 3f e5 d5 51 3e
       -0.66003543 -0.37202424 0.865812 0.2049175
000020 c5 2d a8 3e f6 e3 bc be 6a 0b e5 be e7 d8 89 3e
       0.3284742 -0.3689267 -0.4473527 0.26923296
000030 99 5b 25 bf 60 c0 da 3d 6a f2 1e 3e 16 bf 80 be
       -0.6459289 0.10681224 0.15522161 -0.25145787
000040 9b 83 b2 be 24 c0 00 3d 48 46 4a be e5 af b5 bd
       -0.34866032 0.03143324 -0.19753373 -0.0887144
000050 d5 c0 a5 3e d7 4e 32 3d 26 11 2e 3e e3 40 85 be
       0.32373682 0.04353222 0.16998729 -0.26026067
000060 99 11 d9 be 6d e9 5d be b9 82 19 bf bc cf 89 bc
       -0.42396238 -0.21671076 -0.5996509 -0.016822688
000070 6d 5f 00 bf 89 e8 d1 3e cd 49 17 3e 56 96 df bd
       -0.5014561 0.40997723 0.14774247 -0.10917346
000080 9e 7c 54 3e b3 67 08 3f 04 f9 e8 bd 5e 98 20 be
       0.20750663 0.5328323 -0.11375621 -0.15683123
000090 3a f1 7f be 6e 6c 6c 3d 3e 11 03 bf 00 c6 dd bd
       -0.24994364 0.057720594 -0.51198184 -0.10828781
0000a0 04 3c 5b bf e1 cf 53 ba 72 bb d5 3e af 01 b8 bd
       -0.8563845 -0.00080799876 0.41744572 -0.08984696
0000b0 74 4b b7 3e bb 86 47 3e 1c b8 85 be bb a1 12 3f
       0.35799754 0.1948499 -0.26117027 0.5727803
0000c0 ba 7e b5 3e 61 93 01 3f d5 c1 d6 be e9 74 c9 be
       0.35448247 0.5061551 -0.41944757 -0.39347008
0000d0 af 97 f8 3e 03 66 cf 3d d2 41 2f be 58 c8 48 be
       0.48553225 0.10126879 -0.17114952 -0.19607675
0000e0 db 75 97 3e 05 1f 0d be 18 8a 03 3f 87 01 54 bd
       0.29582104 -0.13781364 0.5138259 -0.05175927
0000f0 5a 86 4d b8 23 9a 7d be 91 86 19 3e 03 28 48 be
       -4.9000933e-05 -0.2476583 0.1499274 -0.19546513
000100 ff 59 17 be 3e 79 cf 3e f3 8d 39 bd af f8 1b 3f
       -0.14780425 0.40522188 -0.04530139 0.60926336
000110 55 f6 30 be 7b 98 42 3e aa e2 b0 be 29 07 9e be
       -0.17281468 0.19003479 -0.3454793 -0.30864838
000120 f7 04 13 bc d9 6e 78 3e 6e e0 a0 be 62 c5 1d 3d
       -0.008973352 0.24261035 -0.31421226 0.038518317
000130 13 70 b5 3b 72 8c ab 3d f8 f2 89 3e cd 95 c0 3e
       0.005537042 0.08376397 0.26943183 0.3761429
000140 b3 c0 49 bd ee f2 08 3f 8d 45 e2 bd b8 78 94 bd
       -0.049256038 0.5349568 -0.11048422 -0.07249588
000150 ed d0 e6 3d e2 c2 6a 3d be c3 7e 3c 8e b6 48 3e
       0.11270318 0.05731476 0.015549598 0.19600889
000160 46 21 61 3c ed 0a 4e be 88 82 fa bb 3d 74 5f 3e
       0.013740843 -0.20121355 -0.007644955 0.21821685
000170 12 4b 66 3f 31 5e 79 bd ea bf da 3d 46 8c 52 be
       0.899583 -0.060880844 0.10681136 -0.20561323
000180 04 08 78 3d 8e fc f8 be 09 1e 01 3f ac 3b 54 bf
       0.06055452 -0.48630184 0.50436455 -0.8290355
000190 b9 dd 0e bf 46 5d cb 3e 3c 55 b4 3c 50 7c 8b be
       -0.5580707 0.397196 0.0220133 -0.2724328
0001a0 60 bf 5d bd 5a 04 48 3f 18 b3 c8 3e 8b 88 3c bf
       -0.054137588 0.7813164 0.39199138 -0.7364585
0001b0 9e 3b 7b 3e 33 6d 06 3f dd 11 61 3f da b2 b6 3d
       0.24534461 0.52510375 0.8791788 0.08920832
0001c0 54 c4 d1 3e 1a b2 75 be 6a 6f a6 3e ce b4 a2 3f
       0.409701 -0.23993722 0.32506877 1.2711427
0001d0 fe 33 e9 be 1b 86 86 bd 14 c6 06 3e 51 19 3d 3f
       -0.4554748 -0.06568547 0.13161498 0.73866755
0001e0 3c f3 88 be 88 76 38 bf f9 4b 1a bf a3 ed b4 3e
       -0.26748073 -0.72055864 -0.60272175 0.35337552
0001f0 53 eb b4 bc e5 72 21 bd ee b7 2e 3f d5 c6 91 bd
       -0.022084868 -0.039416213 0.68249404 -0.07118002
000200 99 1d bf 3e 13 88 82 be 91 ca 0c bd f6 2b 62 be
       0.3732727 -0.2549444 -0.03437287 -0.22087082
000210 97 6e 38 3d 1a be 1b 3f f3 b4 54 bf 12 79 2e 3f
       0.04502734 0.60836947 -0.83088607 0.6815349
000220 13 7b be bd 88 72 80 3e 05 6d fa be b5 4f 12 3d
       -0.09300818 0.2508738 -0.489113 0.035720546
000230 81 20 4d 3e ee 08 97 bd 69 92 71 3c 23 4f 79 bf
       0.2003193 -0.0737475 0.01474438 -0.9738638
000240 2b 68 d0 3d 30 3b 90 3d 3c 34 2c be 5e 50 a2 be
       0.101761185 0.07042539 -0.16816801 -0.3170194
000250 dd 7e 89 be 44 d6 20 3f 9a 9d c7 be e6 54 41 be
       -0.26854602 0.62826943 -0.38987428 -0.18880042
000260 72 f1 ae be a6 4d 86 be 10 83 94 be c0 61 02 3f
       -0.34168583 -0.26231116 -0.29006243 0.50930405
000270 e3 be ad be 59 f2 80 3e f3 38 e5 bd 7b 44 2d be
       -0.33934698 0.25184897 -0.11192503 -0.16920654
000280 7d b4 a3 be 13 e1 52 be 13 55 58 3e 1e 4e 21 3f
       -0.3197364 -0.20593672 0.21126203 0.6300982
000290 86 b4 05 be f9 2c 93 3e 67 a2 8f be 89 16 20 be
       -0.13057145 0.2874525 -0.2805359 -0.15633596
0002a0 5a 78 12 be 31 bc 65 be f6 65 54 3e 99 e2 89 3f
       -0.14303723 -0.2243507 0.2074202 1.0772277
0002b0 5a e9 d9 3e 2d 91 6f 3e 34 3e 7c 3d 04 4b 90 be
       0.42560846 0.23395224 0.06158276 -0.28182232
0002c0 06 6c cb 3e df 48 8f 3c 93 70 0e 3e f1 1f 4f 3e
       0.39730853 0.017490802 0.13910131 0.20227028
0002d0 2d 20 2b 3f bf ef 0a be 39 66 04 bf f9 59 f6 be
       0.6684597 -0.13568018 -0.5171848 -0.4811552
0002e0 af 45 f9 3e 4d 75 18 3d 69 2d a5 3e 28 6e dd be
       0.48685977 0.03722124 0.32261208 -0.43248105
0002f0 e1 4c 64 be 67 a3 b8 be 54 83 b3 be 26 96 aa be
       -0.22294952 -0.36062166 -0.35061133 -0.3331768
000300 4b be ce be ba 4e 37 bd 72 86 fd 3e e5 d1 8b 3f
       -0.40379557 -0.044752814 0.49516636 1.092343
000310 67 06 ee 3e 1e 77 27 bb 93 b4 b3 3e a1 39 3f bf
       0.4648926 -0.0025553177 0.35098705 -0.7469731
000320 3e 37 94 bd bd ae 47 3e 9d 21 00 3f e0 0f ba 3e
       -0.07237099 0.19500251 0.5005129 0.36340237
000330 2b 7f ba bd 26 e0 94 3d 20 90 a7 3e 4d c0 86 be
       -0.091062866 0.072693154 0.32727146 -0.2631859
000340 fe 4b ef be e0 fa d6 3d 3c b2 af 3d f7 21 23 3f
       -0.46737665 0.10497069 0.085789174 0.637237
000350 81 62 cd bd 6b 22 4d 3e 57 60 91 be ca bd 8c be
       -0.10028554 0.2003266 -0.28393814 -0.27488548
000360 09 64 99 3d 91 a7 55 bf be 80 f6 be b4 61 62 be
       0.07489783 -0.8345881 -0.48145097 -0.22107583
000370 06 c5 d8 be f5 e0 44 be 3e f7 26 3c 42 df b0 be
       -0.42337817 -0.1922644 0.010190783 -0.34545332
000380 1a 77 e3 3e b6 db 07 3f f6 b4 0f bf c4 a1 82 bd
       0.44426805 0.5306963 -0.561355 -0.063785106
000390 80 34 bd bd 25 b0 4a 3d 94 69 94 be 6c 1b 98 3d
       -0.09238529 0.04948439 -0.289868 0.07427105
0003a0 2f 7d 38 be c3 4d a1 bc 3f f8 51 be 66 eb d0 bd
       -0.18016504 -0.0196904 -0.20504855 -0.10201149
0003b0 dc 4f b7 bd 5d aa 5c be 67 db 51 3d 40 42 d5 bd
       -0.08950779 -0.21549363 0.05123463 -0.10413027
0003c0 c5 a2 e3 bd 73 29 eb 3b ae 8b 97 3e 38 26 80 bd
       -0.1111503 0.007176572 0.29598755 -0.0625729
0003d0 fd 28 4e bc 2d 37 3d 3e 29 09 a5 3d f3 94 23 3e
       -0.012583015 0.18478079 0.08058388 0.15974788
0003e0 51 29 21 be c1 1a dd bd d8 cf 13 3e ee 8b 0a bf
       -0.15738417 -0.107961185 0.14434755 -0.54119766
0003f0 ae 27 18 be 5f 07 ee bd c1 6e 8c be 7c 9a c2 bd
       -0.14858887 -0.116225 -0.2742825 -0.09502122

bias f4 [128]
000000 78 1f bd 3b 6a 81 8b bd d9 80 7a 3d a0 17 e4 bd
       0.0057715736 -0.06811793 0.061158035 -0.111373186
000010 ba 2e 62 bd af 03 d9 3b 21 16 43 3c 13 71 f1 bb
       -0.055220343 0.0066227536 0.011907131 -0.007368216
000020 64 8e 2d bd 52 5d fc 3c 50 28 03 bd f8 16 bb 3d
       -0.042372122 0.030806217 -0.032020867 0.0913524
000030 0c ac dc 3c 0e 15 7e 3d f0 cd 8b bc dd 7f 6e 3e
       0.026937507 0.062031798 -0.017065972 0.23290963
000040 5d ae 83 3d 07 3e ca bd 1e 46 6a 3d db 46 f1 bd
       0.064297415 -0.09875112 0.057195775 -0.11781093
000050 92 da 71 bc eb eb 8b bd 30 6c 1f bc c5 08 65 3d
       -0.014761584 -0.06832107 -0.009730384 0.055916566
000060 ed 6e 91 bc 3b 78 3d 3d c6 96 b7 bd e5 8f fb 3c
       -0.017753089 0.04625724 -0.089643046 0.030708263
000070 5a a2 8d 3d 32 80 35 3d 5e 26 c3 bd 73 2d 2c 3e
       0.06915732 0.04431171 -0.09528802 0.16814213
000080 d1 3a c6 3b 32 4c 18 3e 5d 9a 7e bd 28 28 61 bd
       0.006049492 0.14872816 -0.06215893 -0.054969937
000090 6e 1b 15 3d db a4 4a 3d 71 c9 98 bb 12 56 08 bc
       0.036403112 0.049473625 -0.0046626856 -0.008321302
0000a0 1c cf 77 3c 17 2c ea bd fa d6 32 be a8 2d 17 bd
       0.015125062 -0.11434191 -0.1746482 -0.036908776
0000b0 c0 c3 ea b9 fb 16 17 be a1 ea 10 bd 68 55 0b bd
       -0.00044777803 -0.1475486 -0.03538001 -0.034016997
0000c0 d4 b2 0e ba b6 77 68 3d dc 78 32 be 56 62 23 3d
       -0.00054435176 0.05675479 -0.17428917 0.039888702
0000d0 c8 c0 c9 3c 67 30 d9 3a a1 f9 61 3d e4 cf 22 3d
       0.024628058 0.0016570211 0.055169705 0.03974904
0000e0 ce 6a b1 bc 23 f4 bf bd f2 84 96 3d 26 79 0b bd
       -0.021657374 -0.09372737 0.07349576 -0.034051083
0000f0 d3 40 fd bc 2b 63 a3 bd 91 3e 2c bd 45 84 b3 3d
       -0.0309147 -0.07977899 -0.042051855 0.08765463
000100 5a 59 e1 3d a4 04 0b bd 66 62 78 be 2a f6 03 bd
       0.110033706 -0.033939973 -0.24256286 -0.032217182
000110 b0 78 81 be 7b 54 38 bb e8 af 03 3e d0 cf 45 bd
       -0.2528739 -0.0028126526 0.12860072 -0.04829389
000120 fc ed c9 bc 9f be 81 bc f7 eb 0b 3d 29 f8 b9 bc
       -0.024649613 -0.015837966 0.03416058 -0.02270134
000130 1d 2d a0 3d f8 5a 82 bd 44 63 92 3d 99 a6 03 be
       0.07821105 -0.06365007 0.0714784 -0.1285652
000140 4a 84 ef bb d0 55 cd 3d 88 5e 41 3e 94 f2 56 3c
       -0.0073094713 0.10026133 0.18883717 0.013119359
000150 c6 f3 43 bd 20 cb 0c bd 40 cd 4c be d6 b9 18 be
       -0.047839902 -0.034373403 -0.20000172 -0.14914641
000160 01 91 7e bd 8e e2 c0 bd b3 86 9e bd 5f 58 1d 3e
       -0.062150005 -0.09418212 -0.077405356 0.15365742
000170 81 0a 23 bd 4a 7c fa 3a ae 24 4f 3d 74 aa 8c 3b
       -0.03980494 0.0019110527 0.05057209 0.0042927805
000180 cf 3a 3c bc 41 76 20 bd 3e 12 ee 3d bb d6 d1 3d
       -0.01148863 -0.039175276 0.11624573 0.10246035
000190 85 9b 67 3d 8c f8 e9 3d 60 c3 e6 bc fc df c3 b9
       0.0565448 0.1142436 -0.028169334 -0.0003736018
0001a0 7e 08 a1 3c 1a 37 ce bd 94 8b c6 bc eb 5f 3b bd
       0.01965737 -0.100691035 -0.024236478 -0.04574577
0001b0 5f 44 8c bd 37 16 79 bc 18 ef 77 3d 96 b6 ab 3d
       -0.06848978 -0.01520305 0.060530752 0.08384435
0001c0 d0 41 86 bc 30 ad 11 be 78 e0 64 be c9 21 f0 3c
       -0.016388804 -0.14226222 -0.22351253 0.029312985
0001d0 99 2a 77 3b 57 68 18 3e e6 1b 93 3d ed 1b 19 be
       0.00377146 0.14883552 0.071830556 -0.14952059
0001e0 8f 50 64 3d 10 89 59 bd 25 f1 8a 3d f4 81 6d be
       0.05574089 -0.05310923 0.06784276 -0.23194104
0001f0 29 2e 52 be b6 dc da bd 5b 70 39 3d a6 0a cd 3d
       -0.20525421 -0.106866285 0.045273166 0.10011797

weight f4 [128, 228]
000000 56 50 da be 37 e7 03 be 08 17 6d 3d 9b c0 a8 bd
       -0.42639416 -0.1288117 0.057883292 -0.082398616
000010 c2 af a6 be 5f 7a 87 be fb 77 70 bd 85 94 19 be
       -0.32555968 -0.2646055 -0.058708172 -0.14998062
000020 eb 66 65 be 98 c4 c0 bd 7c 65 c2 3d 1b 09 83 3e
       -0.22402541 -0.09412497 0.09492013 0.25592884
000030 b6 0b 09 3e 09 b0 bf 3e 86 90 1f bf 99 80 8b bd
       0.13383374 0.37438992 -0.623299 -0.068116374
000040 f0 7a ff 3d 68 2d 17 3f 47 51 9e 3d ba ee a4 3e
       0.1247462 0.5905366 0.07730346 0.32213384
000050 45 a9 00 3e 43 54 81 3e 27 ac 5e 3e dc 85 25 bb
       0.12564571 0.252596 0.21745358 -0.0025256788
000060 62 17 42 3e 04 9b f9 bd d7 b2 1d 3e fb 12 3c bf
       0.18954232 -0.1218777 0.15400253 -0.7346646
000070 da d4 d6 3e 77 c8 8c 3e 8d ff 26 3e e0 10 86 3f
       0.41959268 0.27496693 0.16308422 1.04739
000080 2e 18 72 be 87 82 13 3f 98 85 91 be ac 8d 19 bf
       -0.23642036 0.57621044 -0.28422236 -0.599818
000090 e2 70 17 bf 97 67 53 3e 17 ec ff be 51 ed b1 bd
       -0.5915662 0.20644985 -0.4998481 -0.08687843
0000a0 ff 57 8a 3e a1 5a 8f 3d 1c 5e 01 bd 4a 7f a2 3d
       0.2702026 0.06999708 -0.03158389 0.07934435
0000b0 fa 4b e7 3d fa 84 8e be 49 76 5d be 59 23 b8 be
       0.11293788 -0.27835828 -0.21627153 -0.35964468
0000c0 87 9e 5a 3e 61 da cc be 31 b6 b3 be f8 33 58 bb
       0.21349536 -0.4001036 -0.3509994 -0.003298996
0000d0 79 39 62 be d5 b2 2a be a1 c7 91 3c f8 42 f6 3e
       -0.22092237 -0.16669782 0.017795386 0.48097968
0000e0 0f c2 32 be aa 51 18 3e a1 e3 8d bc 39 f7 47 3f
       -0.1745684 0.14874902 -0.017320456 0.78111607
0000f0 84 78 17 3f 44 14 cc bc 89 ef 21 bb 26 db a8 be
       0.5916827 -0.024912007 -0.0024709424 -0.32979697
000100 dc 87 8d 3e 89 40 ac be 24 79 5f bb 4d 37 c2 be
       0.27642715 -0.33642986 -0.0034099305 -0.37932816
000110 d8 db bb 3e ef 4b 13 3e 41 cd c7 3d 35 9b 94 3e
       0.36691165 0.14384435 0.09755946 0.29024664
000120 a3 cc 9b 3e 5b 28 17 be 9d 1e 9f 3c 3e c0 42 be
       0.30429563 -0.14761488 0.019423777 -0.19018647
000130 4f 2a 19 3d bb cf 56 be 33 38 82 3e 54 df 6f 3e
       0.037393864 -0.2097768 0.25433502 0.23425037
000140 fe 72 e5 3e b3 74 50 3e e3 4f 4a 3d 62 13 80 3e
       0.44814295 0.20357017 0.049392592 0.25014788
000150 9f 1d c7 3d a7 dd dd 3e 95 8a 6d be 8b 1b 8a be
       0.09722447 0.4333317 -0.23197396 -0.2697414
000160 83 c9 5a be c7 c0 aa 3e 8b 66 d1 be ad e2 08 3d
       -0.21365933 0.33350202 -0.40898547 0.0334193
000170 d4 7e ac bd 75 12 cd be f9 c6 bc be bd ae d0 3e
       -0.08422628 -0.40053144 -0.36870554 0.40758315
000180 4a a6 05 bf bf 77 b4 3d a0 00 7f be 38 f1 ba bd
       -0.5220686 0.08811902 -0.24902582 -0.0912804
000190 2c 63 58 bf be 66 c1 be bf 02 57 be cf b7 11 bf
       -0.84526324 -0.377737 -0.20997141 -0.56921095
0001a0 7f 90 bf 3e 1d bd c5 3e 2f a3 81 3e 79 8b 22 3e
       0.3741493 0.38620844 0.25319812 0.15873517
0001b0 17 8c 3d be c6 81 65 be 0e bd e1 be 4c 6d c6 be
       -0.18510471 -0.22412786 -0.4408955 -0.38755262
0001c0 e6 fc a2 be 32 e2 15 3f 69 55 f0 be 59 57 7f 3f
       -0.3183357 0.5854827 -0.46940163 0.99742657
0001d0 b1 83 17 bb c1 91 2b be ec 99 f5 3e 10 b1 2c 3d
       -0.0023119266 -0.1675482 0.47968996 0.042161047
0001e0 35 e6 11 bf 5d e5 0f bf 9a f2 3d be 96 1b f7 be
       -0.56991893 -0.56209356 -0.18549576 -0.48263234
0001f0 25 f6 91 3c 5b a7 2c be fd 65 b3 3f 88 5e 56 bf
       0.017817566 -0.16860716 1.4015499 -0.83737993
000200 27 c7 a9 3e 6a cc 8f bd 68 1f ba 3e 94 e7 5e 3d
       0.33159754 -0.07021411 0.36352086 0.05442007
000210 e9 fd 2d 3f 5f b5 f3 be 0d 91 2a be d7 f8 92 bd
       0.6796556 -0.47599313 -0.16656895 -0.07176369
000220 f3 f2 21 bf 0c 8f 37 bf be c6 c2 3e 85 9b 35 3d
       -0.63261336 -0.7170265 0.38042253 0.044337768
000230 bb 2c 29 bf bf 19 8c be 19 8a c1 3e bb 45 0e bf
       -0.6608388 -0.27363393 0.37800673 -0.5557515
000240 c2 6f 9e be c3 c6 36 be f3 0a 8d be 14 09 08 be
       -0.3094464 -0.17849259 -0.27547416 -0.13284713
000250 a8 b3 d7 be 92 5a f7 be 55 fb bb 3d be 9a db 3e
       -0.42129254 -0.48311287 0.09178797 0.42891496
000260 55 70 e9 3d 2f ab 77 3f dc a7 90 3e fd 39 ae 3e
       0.11398379 0.9674558 0.28253067 0.34028617
000270 cf 12 6c 3e b0 23 da be 59 ab 93 3c 51 38 80 be
       0.2305405 -0.42605352 0.01802604 -0.25042966
000280 13 46 95 bd 51 d6 3b be 04 13 0f bf 75 c3 fe 3e
       -0.07288756 -0.18343474 -0.5588839 0.49758497
000290 82 39 6e 3e 43 ab d2 be 7f d8 93 bd 43 f2 03 be
       0.23264125 -0.41146287 -0.07219028 -0.12885384
0002a0 ae 02 26 3d aa 86 3b be 78 d0 44 3e dc 2e 31 3f
       0.0405299 -0.18313089 0.1922015 0.69212127
0002b0 b6 2a e7 3e c7 58 fd be 25 28 bf be 66 fe d4 bd
       0.45149773 -0.49481794 -0.37335315 -0.10400085
0002c0 a3 e6 57 bd cb d4 c8 be 46 0a 2e 3f 09 bf 67 3d
       -0.052710187 -0.39224848 0.67984426 0.05657867
0002d0 b3 6b d4 3e 9e 06 93 bd f0 16 53 bf 23 00 8b 3e
       0.41488418 -0.071789965 -0.82456875 0.27148542
0002e0 72 99 4a be 55 8c 57 3d 56 54 e7 3e 4f b0 90 3e
       -0.19785097 0.052624065 0.4518153 0.28259513
0002f0 34 84 05 3e 9e b2 b9 3e ca 65 ea 3e 50 c0 0b be
       0.13038713 0.36269087 0.45780784 -0.1364758
000300 73 55 17 3e 7e b2 40 bd 9f a0 2f bf 1a c9 99 be
       0.1477869 -0.047045223 -0.68604463 -0.3003624
000310 77 cb 28 bf b6 a2 72 3e 87 13 94 ba 37 df 58 3f
       -0.6593546 0.23694882 -0.0011297324 0.847156
000320 c6 5e 07 bf 7f 61 91 3e 25 4c b9 3f 52 c6 00 40
       -0.5287899 0.28394696 1.4476362 2.0121045
000330 14 77 6b be 48 67 b3 3e 84 50 b4 bd 4f af 5b bd
       -0.22994643 0.35039735 -0.0880442 -0.053633984
000340 79 8b 34 bf 3d 2d 05 bd d4 51 89 bf e6 dc 82 be
       -0.7052532 -0.032513846 -1.0728097 -0.25559157
000350 42 69 a0 be 1b 0e 87 3e 69 4d 44 bc 5b 52 cc be
       -0.31330305 0.2637795 -0.011981347 -0.39906582
000360 c4 cc 0e 3f db 7d 81 bf 6a ab 13 3e a1 40 e7 be
       0.557812 -1.0116533 0.14420858 -0.45166495
000370 46 e9 60 3f 29 34 ce 3d 08 fb f4 bd fb 45 f6 39
       0.87855947 0.100685425 -0.11961943 0.00046972916
000380 c4 12 7e be 2f fc eb be cd bb 59 3e 97 50 14 bf
       -0.24811846 -0.46090838 0.21263047 -0.5793547
000390 29 5c 81 bd 12 5b c5 bc 0b 11 29 be 7e 74 7e bd
       -0.06316406 -0.024091277 -0.16510408 -0.062122814
0003a0 b4 48 c2 3c b2 47 3e be 73 60 d7 bd 26 74 c8 bd
       0.023716308 -0.18582037 -0.10516443 -0.097877786
0003b0 3e 3b 54 be fa ce d5 be bd b8 f4 bd 90 a7 6e bd
       -0.20725724 -0.41759473 -0.119492985 -0.05826527
0003c0 e5 29 26 be de 91 ca bd b6 ec 24 3e 73 0a 70 3b
       -0.16226919 -0.09891103 0.16105923 0.0036627322
0003d0 87 3f 83 bb de e7 cb be 7c bf de bd ee 8e 19 be
       -0.004005376 -0.39825338 -0.108763665 -0.1499593
0003e0 ae 01 47 3d 50 ce 89 3b 82 93 a2 bd 8c 86 51 3c
       0.048585586 0.0042055026 -0.07938291 0.012788426
0003f0 9c 57 15 be b0 2b 30 bd a2 ec 3c be 3b 60 50 bd
       -0.14584202 -0.043010414 -0.18449643 -0.050873023

bias f4 [128]
000000 d2 ac 68 3d 6a 7e bc bd 31 c0 d5 3d 9b 42 ce 3c
       0.05680544 -0.09203799 0.10437048 0.025178244
000010 c3 ec 12 bd b3 13 da bd a6 16 0f 3d 2d ed 9d 3c
       -0.035870325 -0.106482886 0.03493371 0.019278133
000020 3d 8a 38 bd ad 0a 86 3d fc 1f ea bd e3 78 8a bd
       -0.04505371 0.06545005 -0.11431882 -0.067613386
000030 fd b4 5a bd 1d 59 07 3e 9c 29 ce bc 67 56 97 bc
       -0.05339526 0.13217588 -0.025166325 -0.018473817
000040 4f 7f 80 3c 7e 64 c9 3c 36 fc 7f 3d ea 2f 46 be
       0.015685705 0.024584051 0.062496386 -0.19354215
000050 7f ef a0 3d 68 4f 46 bd 70 30 c8 bc 8e 00 01 3e
       0.0785818 -0.04841557 -0.02443716 0.12597868
000060 f0 0d 6b be d2 a8 97 3d ea 6c 94 bd 36 5a 99 bd
       -0.22954535 0.07405247 -0.07247336 -0.074879095
000070 4e 0d 6c 3d db 15 96 bd e9 a4 af 3d 7e a2 e3 3d
       0.057629876 -0.07328387 0.08576376 0.11114977
000080 81 32 35 3d 1c 8d 6a bd 77 58 3d bd 1d 7b bc 3d
       0.044237617 -0.05726348 -0.046226945 0.092031695
000090 3d 1f 36 bc 74 f9 0f be bc 97 e9 3c f3 ac 01 be
       -0.011115846 -0.14060003 0.028514735 -0.12663631
0000a0 32 07 e2 3b 1f 78 35 bd dc 30 1d bc cc bd 09 3e
       0.0068978304 -0.04430401 -0.0095941685 0.13451308
0000b0 2a eb 33 3d e5 7d bf 3c fc 67 85 bc f7 e2 7f bd
       0.04392544 0.02337546 -0.016284935 -0.06247231
0000c0 56 13 41 bd a7 a0 75 3c 79 02 9b 3c 68 e2 07 3c
       -0.04713758 0.014991916 0.018922077 0.008293726
0000d0 d1 7d 88 3d e7 75 b9 3c 38 e3 5a 3e e3 e3 c5 bd
       0.066646226 0.022639228 0.2137574 -0.096626066
0000e0 6b 58 6e 3c 88 dd ff bc 3d 68 2c bd 0c 48 8f 3c
       0.014547448 -0.031233564 -0.042091597 0.01749041
0000f0 2d e7 cd 3d e7 d7 9f 3c 33 28 dd 3c fe 6f 9c bd
       0.10053859 0.01951213 0.026996708 -0.07638548
000100 ab 94 fe 3d 9c e5 a9 bd ab 52 0a be 6b 5c 4d bb
       0.124307 -0.08295748 -0.13508098 -0.0031335603
000110 07 51 c3 3d 5e 10 c9 bc 30 77 e9 3c 2d d0 9a bd
       0.09536939 -0.024543937 0.028499216 -0.07559238
000120 22 a7 10 bc 38 2d 43 3d cb c9 37 be 9f 9e 9a bd
       -0.00882891 0.047650546 -0.17948072 -0.07549786
000130 b2 5f 79 bd 3d 78 21 3c b2 30 85 bd db 2e a8 bc
       -0.060882278 0.009855327 -0.065034285 -0.020530155
000140 cd a2 78 bd 7e 50 99 bd 09 0f 7f 3d 40 c7 8d 3a
       -0.060702134 -0.07486056 0.062270198 0.0010816827
000150 c2 0b 10 bd 53 a2 bc bc 8e f7 13 3d d3 43 6b bd
       -0.035167463 -0.023026621 0.03612476 -0.05743773
000160 15 40 3f bd da c6 63 3d 1c 3a 24 bd 24 d5 1c be
       -0.046691973 0.05560956 -0.04009448 -0.15315682
000170 b1 89 2a 3c 81 3c 2b 3c 68 b5 61 be e2 00 35 3c
       0.010408805 0.010451437 -0.22041857 0.011047574
000180 d8 9d 24 bd d0 07 0a bd 8a 29 6f bd b8 ed 3d 3b
       -0.040189594 -0.033698857 -0.058389224 0.0028980803
000190 30 bc 29 3d 97 e6 06 be 78 8f 10 3c d2 9d 0b bd
       0.041439235 -0.131739 0.008823268 -0.034086056
0001a0 9e b8 91 bd d7 c3 d1 bc f4 4e 0f bc 3d 64 d7 3d
       -0.07115291 -0.025606079 -0.008746851 0.10517166
0001b0 f0 5f 6e bc 95 eb 58 3d 9d f6 88 3d 4d 42 62 3d
       -0.0145492405 0.052959044 0.06687663 0.05523901
0001c0 03 0f 3b 3c 1d 11 95 3c e1 f0 42 bd 81 ea ad 3c
       0.011417153 0.018196637 -0.047593 0.021229984
0001d0 b7 62 2b bd 39 51 ae bd 12 37 2c 3c 48 e3 0f 3e
       -0.04184219 -0.08511586 0.010511177 0.14051545
0001e0 e4 59 92 bc 4e 24 b5 3c e2 bf 29 3c 54 58 1b be
       -0.017865129 0.022112038 0.01036069 -0.15170413
0001f0 13 1e 2a be 66 bf af 3b 0d 0e 0c bd 0c 7f d5 bb
       -0.16613035 0.0053633926 -0.034193087 -0.0065153893

weight f4 [10, 128]
000000 87 ad 01 c0 14 04 1c 3f cb 92 33 bf 36 bc 76 3d
       -2.0262163 0.6094372 -0.70145863 0.060238086
000010 be c4 23 bf 7f 32 21 be de 68 d3 3e 4e f6 3e bf
       -0.6397208 -0.15741919 0.41290945 -0.7459458
000020 29 f2 4e bf 98 87 1b 3f 0e fd 3f 3f 9a de 07 3e
       -0.8083826 0.60753775 0.74995506 0.1326851
000030 cc ec 9d 3f ba c4 ae 3e 55 ad 39 3e 99 70 04 3e
       1.233789 0.34134465 0.18132527 0.12933578
000040 d4 2d b9 bf f3 fe 09 be a2 b7 fd 3c 5a 54 cb 3d
       -1.4467111 -0.13476162 0.030971352 0.09928198
000050 6e 91 59 be fb 12 00 3f 64 7d 55 3f ff e6 39 3f
       -0.21246883 0.5002896 0.83394456 0.726181
000060 73 57 bd 3e 3a e6 89 3e f6 70 06 c0 50 c0 d1 3e
       0.3698078 0.2693346 -2.1006446 0.40967035
000070 71 1d 0a 3f db ba 03 3f e7 0e 8a 3e e2 64 2b bf
       0.53951174 0.51456994 0.26964495 -0.6695081
000080 66 92 45 3f 18 86 bb 3d ef ce d6 3e f0 f2 84 3e
       0.7717651 0.09156436 0.41954753 0.25966597
000090 ec 07 30 3f 5b 08 74 bc 0d 5d 41 be c8 c2 a5 3f
       0.6876209 -0.01489457 -0.18883152 1.2950068
0000a0 dc e0 9b 3f 2a 50 fc be e3 d2 1e bf e8 92 51 3e
       1.2177997 -0.4927991 -0.6204054 0.20466197
0000b0 71 67 ef bd dc 2c 55 bf a5 30 ab 3f 1b a3 0d bd
       -0.11689652 -0.83271575 1.337422 -0.034579378
0000c0 df 31 e1 3e 1e 5d fa bd e8 42 ea 3e 60 46 6c 3e
       0.4398336 -0.12224792 0.4575417 0.23073721
0000d0 f5 52 6d bf f5 ad 65 bf 41 52 4e bf 3a e2 06 bf
       -0.9270471 -0.8971856 -0.8059426 -0.52688944
0000e0 e1 da 34 bf 27 e3 ee 3f 09 c4 a4 be db 04 5e 3f
       -0.7064648 1.8663071 -0.32180813 0.8672616
0000f0 7e fb b0 be 48 32 f7 3e 3d 7f e2 bf a6 4a 2c be
       -0.34566873 0.4828055 -1.769508 -0.16825351
000100 67 5d 41 bf 8e 3d 2b 3f d0 7e 84 be a7 91 dc bf
       -0.75533146 0.668908 -0.25878 -1.723195
000110 fa c7 c0 be 81 d7 96 3e 69 c1 42 3f 6c 76 a7 be
       -0.3765257 0.2946129 0.7607637 -0.32707536
000120 9e 52 37 3f eb 73 7c be 69 94 f2 be d0 36 9b 3f
       0.7161044 -0.24653594 -0.47378853 1.2126102
000130 51 12 2d 3f 99 d5 42 c0 8b 66 69 bf 9e f8 47 3d
       0.67606074 -3.044287 -0.91172093 0.048821084
000140 6a 80 92 3d ae 73 35 3f 75 84 a4 3f f0 83 84 3f
       0.07153399 0.7087964 1.2852923 1.0352764
000150 9e 26 a5 3f e6 c5 5b 3f 5c 88 a7 3e ad 83 49 be
       1.290241 0.85848844 0.3272122 -0.19679137
000160 f1 f7 13 bd c4 de 85 bb cc 86 01 c0 de 37 2d be
       -0.036125127 -0.0040853936 -2.0238523 -0.16915843
000170 6d e9 84 bf 8c c1 b8 3e 76 fd b6 3f a5 ec 42 3e
       -1.0383736 0.36085165 1.42961 0.19035585
000180 f0 f6 c2 be 32 d0 ad bf 63 02 33 bf 20 62 61 c0
       -0.38079023 -1.3579161 -0.69925517 -3.521614
000190 e0 1c 8a bc c2 de 8e 3f a1 1a 5c c0 f6 54 56 c0
       -0.016859472 1.116173 -3.4391253 -3.3489356
0001a0 e8 a4 f6 bd a3 04 9d be 1b c0 17 bf dc 4a 63 3e
       -0.12043172 -0.306676 -0.59277505 0.22196525
0001b0 2d 22 0c bf 46 a5 b0 bf 37 3c 5b 3f 81 d3 c7 3f
       -0.5473965 -1.3800437 0.85638756 1.5611421
0001c0 99 db 89 3d 9d 47 e7 be 30 47 79 3e b4 8b ee 3e
       0.06731338 -0.45171824 0.24343562 0.4659096
0001d0 51 8c e3 3f 29 b9 e0 3e 76 b9 1e bf e3 cd 9a 3e
       1.7777196 0.43891266 -0.6200174 0.30235204
0001e0 98 ee 45 3f 73 a7 87 bf fe 29 47 3e cc 34 df be
       0.7731719 -1.0597976 0.19449612 -0.43594968
0001f0 af 8b 0b 3e 61 70 9d 3e b9 62 59 bf 8a 2c ea 3c
       0.13627504 0.307498 -0.84916264 0.028585691
000200 0d 46 1d 3f 20 06 00 be 0c bd 87 bf b7 8f 25 3e
       0.61435014 -0.12502337 -1.0604568 0.16168104
000210 ad c3 bc 3e b3 a1 b7 3f 36 90 a3 3d 36 12 cb be
       0.3686804 1.4346222 0.079864904 -0.3966233
000220 53 fa c3 3f 5e a7 1e bf 8d 37 b3 bd 52 12 06 be
       1.5310768 -0.6197413 -0.0875083 -0.13092926
000230 ec 26 b3 bf 83 f9 5d be a0 d1 23 be e7 ac aa 3d
       -1.3996253 -0.21677212 -0.15997934 0.0833376
000240 0a 31 a7 3f 9e 59 46 3d a2 3b 32 bd ad 01 b9 bf
       1.306184 0.04842531 -0.0435139 -1.4453636
000250 ef 25 9a bf 98 1e f6 3e ca 89 6d bf 21 67 12 3d
       -1.2042826 0.48070216 -0.92788374 0.035742883
000260 6a b2 b3 3e 68 cc fd bf 67 9e 1c bf 82 84 85 be
       0.35097057 -1.9828005 -0.611792 -0.26077658
000270 ed c9 a0 bd 27 40 11 bb 1a 02 99 bc f3 ad 2f 3e
       -0.07851014 -0.0022163482 -0.01867776 0.171562
000280 ac 40 56 bf 23 dc cd be 81 6e bd be b0 60 27 c0
       -0.8369243 -0.40207013 -0.3699837 -2.6152763
000290 e6 e4 db be c0 b1 91 be 7d 19 ce bb 9b ee a1 3e
       -0.42948073 -0.28455925 -0.0062896595 0.31627354
0002a0 26 9c ed 3d 9d 6d 3a be a6 f3 d3 3d 19 09 56 be
       0.116020486 -0.18205877 0.103492066 -0.20901908
0002b0 a1 6a fc bd 7c 12 48 3e f3 ad fd be af 73 5a bf
       -0.12325025 0.19538301 -0.49546775 -0.8533277
0002c0 9b 35 4f bf e8 1d 88 3d 95 59 45 3e ac c3 07 40
       -0.8094117 0.06646329 0.19272454 2.1213179
0002d0 d4 5d e6 3d 18 c2 82 3e 56 2d 72 be b0 3b f6 be
       0.11248365 0.25538707 -0.23650107 -0.48092413
0002e0 03 91 c0 3e ae c0 09 bf 42 f3 7c 3e a6 18 c6 3f
       0.37610635 -0.5380963 0.2470217 1.5476272
0002f0 cb 09 b1 bd a2 2f 37 bf 7c 3e 60 be de 9e 9a bd
       -0.08644446 -0.71557057 -0.21898836 -0.07549833
000300 42 45 95 bd 7a e4 92 bf 05 8e 68 3e f5 91 97 bf
       -0.072886005 -1.1475976 0.22710426 -1.1841418
000310 ef aa 61 bd 57 51 8e bf 07 cd 14 3f c3 76 86 3e
       -0.055094656 -1.1118573 0.58125347 0.26262483
000320 84 3d f2 bd 04 c7 77 be 0a b1 c5 3d 7d 4f 81 3d
       -0.118281394 -0.24197012 0.09652908 0.06313989
000330 c6 fc 0e be 7c f0 23 3d 22 00 52 3f 49 92 16 3e
       -0.13963613 0.040024266 0.8203145 0.14704241
000340 52 52 f2 3c b2 59 01 c0 68 a5 cd 3f b5 6c 85 bf
       0.029580269 -2.0210996 1.6066103 -1.04238
000350 4a dd e1 3e a9 2b 00 3e bf 9a 18 bd 01 cd 95 3e
       0.44114143 0.12516655 -0.037256952 0.29257968
000360 2f 4f 02 3e 88 1e 88 3e 83 2f 05 3e 52 c6 7a 3e
       0.12725519 0.26585793 0.13006406 0.24489716
000370 70 c5 49 3f cf f4 10 3e 31 da 5c bf 0d 6b b3 3f
       0.7881689 0.14155887 -0.86270434 1.4017044
000380 2f 3a d0 be 5d 18 25 3d ad 17 db bc 33 e4 03 bf
       -0.4066939 0.040306438 -0.026744688 -0.5152008
000390 0a 9c 21 be e4 58 52 be 17 43 51 3e 6f 16 5d bb
       -0.1578218 -0.20541722 0.20435749 -0.0033735295
0003a0 f0 12 08 3f cc db e0 3e a1 56 5d 3f 1d 16 9a bd
       0.53153896 0.43917692 0.8646031 -0.07523749
0003b0 0a ad ec be bc 27 ef 3e 0c dd 63 3f 31 74 3e bd
       -0.46225768 0.46710002 0.89009166 -0.046497528
0003c0 9f 22 b0 3d 8c de 64 bf 44 99 e0 be aa be 44 bf
       0.086003534 -0.8940208 -0.43866932 -0.7685343
0003d0 e5 4c cf be 21 6b 8b be 72 00 9a 3e 1f 4a 5b 3e
       -0.40488353 -0.2723017 0.30078465 0.21414994
0003e0 04 d9 2a be 1f 0b 81 3e 9d e5 cf bf 81 36 46 3e
       -0.16684347 0.25203797 -1.6241947 0.19356729
0003f0 78 9b 98 bd 7a c5 82 bf b0 cd bf be 3b ce 6d 3d
       -0.07451528 -1.0216515 -0.37461615 0.058058005

bias f4 [10]
000000 10 50 a5 be 2e 0c 4c 3e a2 16 f6 3d 31 b0 44 be
       -0.32287645 0.19926521 0.120160356 -0.19207837
000010 02 f1 cc 3d ac 20 39 bf 85 52 18 be ad cf 8d 3e
       0.10006906 -0.7231548 -0.14875229 0.27697507
000020 76 5f 78 be 9d 55 36 3e
       -0.24255165 0.17806096
